model/model.pth (torch, 16799 bytes, 4 tensors)

linear1.weight f4 [256, 11]
00000000: d036 af3c 9b8b 29be e75b f4bd 4ffb 83be
00000010: 90aa 21bd 3304 073e 6c48 b93d 3ad7 74bd
00000020: 05df 43be 9fa5 adbe cc60 723e 2237 38bb
00000030: 960f b4be dcf6 7fbe be8f 9d3e ab0a d03e
00000040: 54a6 683e b520 a1be 9f94 08be c086 02bd
00000050: 151c 143e f48d 92be dcc5 003e b7f3 183e
00000060: bc70 623d 092b 42be d9c2 42be 1bb7 3ebe
00000070: e5d7 31be 49ad 7338 2e74 233d 7055 c63d
00000080: ae62 a93d 4251 e6be ecd9 0d3f fb13 ae3e
00000090: e50c 053e 6865 fc3d 3c75 75be c2fa 033e
000000a0: cfe5 7a3e eff2 a23e 4e85 393e 2bf1 673e
000000b0: 6101 113f 2106 c33d 4f41 973d 8afd c4bd
000000c0: 4d9a 393e 76d0 84bd 9758 fd3e d905 eb3d
000000d0: 4e66 c9bd 3f63 9c3d d2e1 01bf 04df dcbe
000000e0: 2ddc 8f3e 3d60 0f3e 38ca 023e 2478 14bf
000000f0: 15fb 95be 9dbf 2c3e 968f e6be 9061 03bf
00000100: 2fda 08bf 9b83 b83e dd7a 7abe 7ceb da3e
00000110: bd44 06bf b98f 1a3e 66a5 163e 3765 fabe
00000120: 36b3 5fbe aa92 723e 0e51 a43e 6657 54be
00000130: 16cd 0ebe f2ab cfbd fc71 d33e 0098 41be
00000140: 6907 fa3d 038b 02be 6ca8 6ebe fffc e9bc
00000150: 88fc 81be 94fc 4e3e e848 833e 1428 c63d
00000160: 4844 7fbd 0335 563d bc6e ffbe 717c d0be
00000170: 3384 0ebe 3d3d c5bd 2956 a7be 9c96 693e
00000180: 9da9 39be 82eb b63c edf1 b43c 314f 883d
00000190: c339 b93d 7681 ac3d 4967 a63d 5b74 adbe
000001a0: 81f3 e13e 73fd 94be 8b4c 62be 5de2 cb3e
000001b0: e123 cebe eb53 433d 7156 e13e d77f 3f3e
000001c0: 965e 02bf ea9e dbbd 7acd e0b9 7d5d dbbb
000001d0: 6a69 3ebe 3f92 da3d 8e68 ebbd 4c9b 5fbd
000001e0: 788f 78bd b224 bbbe 107a c63e 946e b6bc
000001f0: cc39 913e 7825 c5be 72b3 eabc 85ba e3bc
00000200: 5787 6ebe f784 01bf bd89 25bf 0af1 583e
00000210: 4a45 0f3e e5e9 223e e3f7 6cbe 35d2 c7bd
00000220: 75c3 673e 6408 1cbe cf19 eb3d cdc3 17bf
00000230: 2d0a 7fbe a98b 843e 204f 053e 6528 cf3e
00000240: 978e d03d 3624 a93e 5f3a 92be 7dc9 433e
00000250: 2c7f 973d 6da9 aebe ef13 e33e 42e3 26be
00000260: d82f 3a3d a9ff b33e 0364 16bc 6a42 eabe
00000270: 92bb c13e fec3 213e 2a04 083e ac12 933d
00000280: e4fc c3bd 2a59 17bf 07af e1be d871 fd3d
00000290: 10bb 1b3e 26c7 973e 56eb f73e eee8 8f3d
000002a0: e50f 8f3d fc41 87be 9e03 c03d 2aed 4cbe
000002b0: ed22 a1be 7f32 f6bc 2945 d2be 35a0 7cbd
000002c0: 2f66 4d3e c6fe dfbc 9e4d 8bbe ca59 0fbd
000002d0: fd6a 9e3e a254 8c3e 3842 8cbe 5a59 433e
000002e0: 49ed 03be fa49 89bd 2629 f73e b3b4 54bc
000002f0: f0b3 813e 2555 66bd b06a c43e 8c30 013e
00000300: a036 b5be f353 dbbe 1a93 ba3e c821 793e
00000310: 0819 adbe 11ab d3bd 6ed9 45be 73e7 763e
00000320: faef 773e d4e2 4abe 7901 b2be 2079 473d
00000330: 095a 1f3e 12cd 013d 5370 ee3c fb0b cfbe
00000340: a697 d7be 415c 1a3d bbee 1c3f edb9 1dbf
00000350: b9ab 143e 7688 adbc f067 80be 234e 7d3e
00000360: 374a 65be be3f 8d3e f580 c8bd de23 5f3d
00000370: 76fa 8cbd 0dcb edbb 0942 1e3f faa0 13bf
00000380: f6a9 853d d918 a93e d488 3e3e 3d2f e5be
00000390: 4c8f 13bf bcc0 723d 7851 d43e 2be0 acbe
000003a0: 100b e5bd 8101 54be 5809 833e d52b 053f
000003b0: c4c0 6cbe e472 953e a760 483e dd01 553d
000003c0: 61f0 d5be 82e6 86bd 7a07 4a3e dbb2 b6be
000003d0: 200d 45be f0d7 9c3e d0db cebe 8794 e23d
000003e0: 38a1 6dbe 46b9 233e 7b71 f6be 27d3 48be
000003f0: 0fba acbe 043b c7be d913 63bc 9fe2 b2be
0.021388441 -0.16557162 -0.119315915 -0.2577767 -0.0394693 0.13185196 0.090470165 -0.05977557
-0.19128044 -0.3391542 0.23669738 -0.0028109034 -0.3516814 -0.24996513 0.3077373 0.4063314
0.22719699 -0.31470266 -0.13337944 -0.03186679 0.14463837 -0.28623927 0.12575477 0.1493672
0.055283293 -0.18961729 -0.19019641 -0.18624537 -0.17367513 5.80971e-05 0.03990572 0.09684265
0.08270775 -0.4498387 0.5541065 0.3399962 0.129932 0.12324029 -0.23970503 0.12888625
0.24501728 0.3182597 0.18117258 0.22650592 0.5664273 0.09522653 0.073855035 -0.09618671
0.18125267 -0.06485073 0.4948165 0.11475725 -0.09833966 0.07636117 -0.507352 -0.43138897
0.28097668 0.14001556 0.12772453 -0.5799582 -0.29293123 0.1686997 -0.45031422 -0.51320744
-0.5345792 0.36037907 -0.24460931 0.42757785 -0.52448636 0.15093888 0.14711532 -0.48905346
-0.21845707 0.2368876 0.3209309 -0.20736465 -0.13945422 -0.10140218 0.412979 -0.1890564
0.122084446 -0.12748341 -0.23306435 -0.02856302 -0.2538798 0.20213538 0.2564156 0.09675613
-0.062320977 0.05229665 -0.4988917 -0.4071994 -0.13917617 -0.09630821 -0.32682922 0.22811359
-0.18131109 0.022329096 0.022088015 0.066557296 0.0904422 0.0842313 0.08125169 -0.33877835
0.4413109 -0.29099616 -0.22099511 0.3982114 -0.40261748 0.047687452 0.44011262 0.18701111
-0.50925577 -0.1072367 -0.000428777 -0.0066944943 -0.185949 0.106724255 -0.114945516 -0.054591462
-0.060683697 -0.36551434 0.38765 -0.022269525 0.28364408 -0.3850515 -0.02865002 -0.0277989
-0.23293816 -0.50593513 -0.64663297 0.21185699 0.13991275 0.15909536 -0.23141436 -0.09756891
0.22633155 -0.15237576 0.11479532 -0.59283143 -0.24906226 0.25887802 0.13018465 0.40460506
0.10183447 0.3303544 -0.2856016 0.1911983 0.07397303 -0.34113637 0.44351146 -0.1629763
0.045455784 0.3515599 -0.009179118 -0.45753795 0.37838417 0.15797421 0.13282838 0.07181296
-0.095697194 -0.5912043 -0.44078848 0.123752296 0.15208077 0.29644126 0.48421735 0.0702685
0.069854535 -0.2641753 0.0937569 -0.20012346 -0.3147196 -0.030053375 -0.4106839 -0.061676223
0.20058511 -0.027343165 -0.27207655 -0.03499774 0.30941 0.2740832 -0.2739427 0.19077054
-0.12883486 -0.06703563 0.4827358 -0.012982535 0.25332594 -0.056233544 0.38362646 0.12616175
-0.35393238 -0.42837486 0.36440355 0.24329293 -0.3380816 -0.10335363 -0.19321224 0.24111728
0.24212638 -0.1981309 -0.3476675 0.0486995 0.1556169 0.03168971 0.029106295 -0.40438828
-0.42107886 0.037685636 0.61301774 -0.61611825 0.14518632 -0.021183234 -0.25079298 0.24736838
-0.22391592 0.27587694 -0.097902216 0.054477565 -0.06883709 -0.0072568716 0.6181951 -0.57667506
0.06526558 0.3302677 0.18606883 -0.44762602 -0.5764053 0.059265837 0.41468406 -0.33764777
-0.11183751 -0.20703699 0.25593066 0.5202001 -0.23120409 0.29189217 0.1956812 0.05200373
-0.41784957 -0.065869346 0.19729415 -0.3568333 -0.19243288 0.30633497 -0.4040208 0.110634856
-0.23206031 0.15988645 -0.48133454 -0.19611798 -0.337357 -0.38912213 -0.0138597125 -0.34938523

linear1.bias f4 [256]
00000000: 266a f73d 5402 e13d 9559 5bbe 2965 21bd
00000010: 21e5 17bd 9490 b3bd 592d d93d a1ee 4abe
00000020: 7785 28be b3d1 61be b4dd 22be 8e2d 1f3c
00000030: b86d 813e a934 8bbe 488b 703e 6a20 c5bd
00000040: e002 60be d3d0 89bd 578b 52be 8910 1fbe
00000050: f9a0 673c 9f20 b23e 2a44 1d3e 36b5 a13d
00000060: 5e17 0bbe 9591 9bbd 3ea4 2cbe fc5f 0bbb
00000070: 07b5 703c 0afb d63e bff7 24be dd2c d9be
00000080: 2146 bd3d 9db9 8abe aad0 5bbe bfb0 e0bd
00000090: c949 bc3b 0bac 53bb 64c4 6e3e b11c 85be
000000a0: 7055 793e 6f3a 0cbd 6ffe 2dbe 4c6b 8ebe
000000b0: 9d25 a13d b65b 8bbe af71 9cbe 6816 a8be
000000c0: 4568 25bd 98c8 22bd 13e2 38bd d8fd b3be
000000d0: 5ff6 6fbe 4636 a0be 17a5 2cbe c33e 83bc
000000e0: 4bf4 283f 13c3 603e ce4a a1be e3e9 813d
000000f0: 0f18 32bd 51a2 6a3e 800e 983e 3667 b2be
00000100: 0315 81be 7fe7 80be b36a 823e a3f1 4dbe
00000110: a556 92be c626 37be 68a0 a03e 46c7 8cbe
00000120: 29c0 533e 29e0 83be 8106 87be fae3 40be
00000130: fbdd d73c 2893 abbe 7613 653d 52d0 3c3e
00000140: f5c3 1abe b127 75be 2ba1 c6bd a61f 13be
00000150: d647 ebbd e254 833e 9c51 87be 7806 283e
00000160: 94ef 46be 43b8 a0be dfc8 51be c7ca 11be
00000170: 1488 2fbe 2e20 83be c9c9 773e 4034 40be
00000180: a9fc 2fbe d26b 95bd 5b50 a9be 7403 883e
00000190: 9486 4e3e fcbb 24bb 4509 63be 8141 dc3e
000001a0: 6630 8fbe 2638 e53e 03e0 cf3c 1cd0 6c3e
000001b0: c608 0d3f 0388 28be cae9 313d 589a e23d
000001c0: f642 3e3e 4a7e cb3e 492b e1bd 69b9 6cbc
000001d0: 1e8d 8b3d cbf2 39be 42e3 aebe 3059 233e
000001e0: e61b 1b3f 794f d1bd 91cb b3be 6a01 ca3b
000001f0: 2883 85be 8fe9 39bc d6bd 1a3f 862a 60be
00000200: cecd 07bf 09a6 d43d 8c53 e3bd e78f b8bc
00000210: dde7 64bd ca30 d2bd 217d 68be df37 22be
00000220: 7245 b03e 7b34 10be af9e b8bd 725b 2fbe
00000230: c433 6dbe dfe4 733c f675 c43e f1f6 a6bd
00000240: 0a2f 8d3b 35c2 b6be 0f2a fb3d 1784 96be
00000250: a79f 3fbe e2f4 c7be 5eb1 c2be 6ba5 cabe
00000260: 3229 d73d 7c8a 1b3c 0b37 25be 3a6e 01be
00000270: 792f 5f3d b37f 0dbe ab57 3ebe fb03 bebc
00000280: 6abb 89bd a812 8a3d 3b18 90be cf82 6b3e
00000290: 42bd b83c ac34 03be 2979 8ebe 3731 d83e
000002a0: 6623 18be b092 67be 69d8 d63e 579b c23d
000002b0: 140b 5cbd 755b b8bd ebed 8cbe c156 74be
000002c0: 7b7f 9b3c 5b63 26be 80d2 a2be d267 e63e
000002d0: c2e5 85be 294e 1fbe 8dcc ecbe 01b0 83be
000002e0: c04c 30be 5e25 88be 40d2 d4bb ac1c a9be
000002f0: 4011 07bd 86cc e2be 1729 553d 3a5a ebba
00000300: 2933 c0bd 913c 89bd bf62 f2bc 808a 87be
00000310: 26ff 083e cce3 433e 8ac3 0dbe 2efa c83d
00000320: fdcf b1be a686 87be 908b 27be 55a4 4bbe
00000330: 2bd1 40bd f93d dfbe 6bc1 24be d6a9 8dbe
00000340: 949c 37be 5027 dbbe 5880 4f3e 2128 103e
00000350: 3a0b 6cbd 2b29 53be af54 b3be 15b7 693d
00000360: 2566 a1be 3cf3 86be 41c3 b5be 11a4 e4be
00000370: 648f 84be e100 323e 82e3 39be 9387 a5be
00000380: dd6d 77be c5f8 8dbd 337b 8dbd ebcc 3fbe
00000390: f80d 6bbe ec39 843c 777f 36be ae32 b0be
000003a0: 3ae0 0e3e 5bd5 83be 2b53 dcbc f896 bbbe
000003b0: f00e 99be fd89 833d b6a3 863d 56f5 813e
000003c0: b0ec 0bbe 201c ef3e 0580 8fbe c844 3fbe
000003d0: 7c45 883f 27c3 70be 64e1 343e bede 8fbe
000003e0: 5fc0 13be e822 d7be 11be a13e 0e47 2e3f
000003f0: deae 14be fa2e 073e 0b40 4ebe 60ee b93e
0.12080793 0.10986772 -0.21420892 -0.039403114 -0.03708375 -0.087678105 0.106043525 -0.19817592
-0.16457163 -0.2205265 -0.15904886 0.009715451 0.2527902 -0.27188614 0.23490632 -0.09625323
-0.21876097 -0.06729283 -0.20560966 -0.15533651 0.0141375 0.34790513 0.15358034 0.07895891
-0.13583133 -0.07596127 -0.16859528 -0.0021266928 0.014691598 0.41988403 -0.16110133 -0.4241704
0.09241892 -0.27094737 -0.21466318 -0.10971212 0.0057461006 -0.003229859 0.23317105 -0.25998452
0.24348998 -0.034235414 -0.1699159 -0.27816236 0.07868502 -0.27218407 -0.30555484 -0.32829595
-0.040382642 -0.039742082 -0.045137476 -0.35154605 -0.23433827 -0.31291407 -0.16859852 -0.016021138
0.6599776 0.21949415 -0.31502384 0.063434385 -0.043479975 0.22913481 0.29698563 -0.3484437
-0.25211343 -0.25176618 0.2547203 -0.20111708 -0.2858173 -0.17885885 0.3137238 -0.27495784
0.20678772 -0.25756958 -0.2637215 -0.18836966 0.026350966 -0.3351071 0.055926763 0.18438843
-0.15113814 -0.23940922 -0.09698709 -0.14367542 -0.11488311 0.25650698 -0.2642945 0.16408718
-0.1942733 -0.3139058 -0.20486782 -0.1423751 -0.17141753 -0.2561049 0.24198069 -0.18769932
-0.17186226 -0.07295956 -0.3306912 0.26565135 0.20168525 -0.0025136461 -0.22171505 0.43018726
-0.27966613 0.447694 0.025375372 0.23126262 0.5509151 -0.16458134 0.04343585 0.11064595
0.18580231 0.39744788 -0.10994584 -0.014448502 0.06814025 -0.18159024 -0.3415776 0.15951991
0.60589445 -0.10220236 -0.35116246 0.0061647194 -0.26076627 -0.011347189 0.60445917 -0.21891221
-0.5304841 0.10383231 -0.1109992 -0.022529555 -0.055885185 -0.10263212 -0.22703983 -0.15841626
0.34427983 -0.1408252 -0.090146415 -0.17124727 -0.23164278 0.01488611 0.38371247 -0.08152569
0.004308586 -0.35695043 0.122638814 -0.29397652 -0.18713246 -0.39054018 -0.38025945 -0.3957933
0.10505904 0.0094934665 -0.16134278 -0.12639704 0.054488633 -0.13818245 -0.1858813 -0.023195257
-0.067251995 0.0674184 -0.28143486 0.22999118 0.022551183 -0.12813061 -0.27826813 0.42225048
-0.14857253 -0.2261455 0.41961983 0.09502285 -0.053721502 -0.09001819 -0.27525267 -0.23861219
0.018981686 -0.16248839 -0.31801224 0.45001084 -0.26151854 -0.1555716 -0.4624981 -0.25720218
-0.17216778 -0.2659101 -0.0064947903 -0.33029687 -0.032975435 -0.44296664 0.05204114 -0.0017955967
-0.09384758 -0.06701005 -0.029588101 -0.26472855 0.13378581 0.19129866 -0.13844123 0.09813343
-0.34728995 -0.26469916 -0.16361833 -0.19886906 -0.047074478 -0.4360197 -0.16089408 -0.27668637
-0.17930824 -0.4280343 0.20263803 0.14077808 -0.057627894 -0.20621173 -0.35025546 0.057059366
-0.31523243 -0.26357448 -0.3550053 -0.44656423 -0.25890648 0.17383148 -0.18153194 -0.32329997
-0.24163003 -0.06932215 -0.06908264 -0.18730514 -0.22954547 0.0161409 -0.17822061 -0.34413666
0.13952723 -0.25748715 -0.026895126 -0.36638618 -0.2989421 0.064228036 0.06574194 0.2538249
-0.13664508 0.46701145 -0.2802736 -0.18678582 1.0646205 -0.23511945 0.17664105 -0.28099626
-0.14428852 -0.4201882 0.31590322 0.6807717 -0.14519832 0.13201514 -0.20141618 0.36314678

linear2.weight f4 [3, 256]
00000000: b91b 813d e7d9 123e a6c0 c0bc 84d8 a53d
00000010: 09e3 93be c10b 783e 7344 3f3e 2cb1 14bd
00000020: 2c4a 48bc 1c30 dabe 4ceb 923c e045 293e
00000030: 7b39 913d e702 42be 7d9e 143e 78d5 d3bd
00000040: edd1 6bbe 4aad 303e 36b2 12be 42aa 803d
00000050: 24db c43e d809 b93e e3c0 0d3e 8903 1fbe
00000060: 9ea3 6f3d 97fe b5be dc23 ae3d 11fd f8be
00000070: 0bf4 08be 8c5f ff3e 0bdf f2bd c807 87bc
00000080: e222 e4bc 0228 6dbe ca64 763c c9b1 123d
00000090: 37e9 ac3d 2c01 903d a71a 4d3e 2710 b9bc
000000a0: d756 f33a 7cba 8ebd cae9 8bbe 1f76 2dbe
000000b0: c968 19bc 1538 2fbe c344 44bc 7fd2 bfbd
000000c0: 6011 0bbe 6ca9 b83d a4f1 c33e 6200 aebb
000000d0: db6f 683e 9065 babe 3e73 2abd dac4 acbe
000000e0: 9537 163f 1f0b 913c 7f74 c2bc c36b 32be
000000f0: 626d b4bd 22ad e23e 3d02 173e 9d12 4fbc
00000100: 46d0 58be e2df 56be b1f7 073e 1e4f 9abe
00000110: 6f51 41be 11c4 7bbc 2823 553e 94c9 42bc
00000120: c2c8 ee3d c990 6abd b27f 1fbd a56c 4dbd
00000130: ddbb b03e 3aa6 9fbd 3f0e 9c3e 9a1b 973e
00000140: cd5e 29bf 4467 24bd 8526 d2bd 5842 2ebc
00000150: 8c49 993e d5b1 003e 2473 e8bc 9824 e63e
00000160: b8c7 00be 18c3 943c 72d0 62bc ca4d 1d3a
00000170: fc48 d9bd 37e2 31bc 37f1 ec3e 30b0 cabe
00000180: d0fb 41be 0f6e 783d b0eb b3bc e94e ea3e
00000190: 795e a53e e29c b53e cd42 433e 6c48 ca3e
000001a0: c281 adbd 44fd 773e e710 98be aa1b 0e3e
000001b0: 4023 943e 6f1d 17be 472f 9b3d 6fc6 ae3e
000001c0: 8eab 113d b221 bf3e dc0a 30be 04b4 943d
000001d0: 7901 26bc 6f4a abbe 3ba9 c3bd c760 553e
000001e0: e039 b53e 13ac 39be 1108 8fbc 0936 a8bb
000001f0: bac5 c23c 9bdc 91be 92e8 bd3e 309d 95be
00000200: 5232 73be 63b6 ae3e 4a39 03be 13a4 72be
00000210: acb7 f3bc 7339 bd3d 7e8d 77bd 03dc 2e3e
00000220: fde2 de3e ce9c c6bc c501 473d 1092 913b
00000230: f817 72bd 9ab9 4f3c b2ae 103f 961d 9cbe
00000240: ba94 44bd 2a1b 04bc 4140 543e 301e c13c
00000250: 8398 fbbd 3748 e6bd e52c bbbe 21bd ba3c
00000260: 04f0 c73e 3990 bb3c 32ed 8fbe 17e2 543e
00000270: 13be 1e3f a641 c23d 96f9 1f3b c7e3 9abe
00000280: 6bfa 183d d478 e6be c30f eebe bb9d 043f
00000290: b112 b53d 7721 4dbc 37d1 5fbd 215a a13e
000002a0: 522a 27bf 56a6 afbd 8708 a03e b6ed a33e
000002b0: 8914 153e d4ba 123d 6e2c a4bc dc02 5abe
000002c0: eaec b33e 0358 733b d1b4 ebbd 5ee1 a93d
000002d0: 3445 fbbd 888c debd ccc0 9fbd 21f1 5cbb
000002e0: aad0 f9be c53f 06be 92e9 d7be d8d8 013c
000002f0: b041 fe3b 1986 32be 75e7 623e 8e2a a8be
00000300: 2a32 9bbb 3788 cabe db04 b93e a54d 9f3c
00000310: ce85 f33e bbbb cb3e 0fbf bb3e 7f46 213e
00000320: ecbf 2e3c e3c9 2b3e 7673 babe a390 debc
00000330: 3e00 30bd f615 5cbe 4eeb 24bb 676c 09be
00000340: 4f24 f9bd 6121 39bd cbe1 f7bd 0d3f 383e
00000350: dfcf 31be 5e56 e23d b6ef ecbc abaa 043d
00000360: fb86 e9bd 9c8d d63d 0c66 a0be 431b 1dbe
00000370: 3224 dc3a adba 003f a0d0 6f3d 5f56 31be
00000380: cca3 f83c f092 52bf e297 d0be b77d 52bd
00000390: bd28 903b 3ed9 c03d 7f66 5abe 61c4 2b3c
000003a0: b985 2b3e 8601 283e 06f7 a4be 6c4e 22be
000003b0: 01f7 3fbe 7cd2 503d c2f2 0cbe a749 b23d
000003c0: d8e2 943c 16c1 5b3e a090 13be 70b9 debe
000003d0: 2977 723e 65f6 2dbe d413 053f d8ac afbd
000003e0: fb22 52bd 9be6 ec3c fdd0 973e 1e56 aa3e
000003f0: ece8 9cbd 7449 bd3c 40cf 83be 8984 ce3e
0.06304116 0.14340936 -0.023529362 0.08097938 -0.28884152 0.24223234 0.18678455 -0.036301777
-0.012224715 -0.4261483 0.017934464 0.16530561 0.07091042 -0.1894642 0.14513583 -0.1034345
-0.23029299 0.17253605 -0.14325795 0.06282474 0.3844844 0.36140323 0.13843112 -0.15528692
0.058505647 -0.355458 0.085029334 -0.48630574 -0.13374345 0.49877584 -0.11858948 -0.016483203
-0.027848665 -0.23159793 0.015038678 0.03581408 0.0844292 0.070314735 0.20029698 -0.02259071
0.0018565309 -0.06969163 -0.27326804 -0.16939591 -0.009363362 -0.17111237 -0.011979285 -0.09366321
-0.13580847 0.0901669 0.38270295 -0.005310104 0.2269892 -0.3640561 -0.04161381 -0.33743936
0.5867856 0.017705498 -0.02373719 -0.1742392 -0.088099256 0.44272715 0.14746948 -0.012638715
-0.211732 -0.20983842 0.1327808 -0.30138487 -0.1887872 -0.01536657 0.20814192 -0.01188888
0.11659385 -0.057266984 -0.03894014 -0.05015244 0.34518328 -0.07795377 0.3047962 0.29513246
-0.6616028 -0.040137544 -0.10261253 -0.010635935 0.29938924 0.12567838 -0.028375216 0.44949794
-0.12576187 0.018159434 -0.013843643 0.0006000666 -0.10609624 -0.0108571565 0.46277782 -0.39587545
-0.18943715 0.060651835 -0.02196297 0.4576333 0.3229864 0.35471255 0.19068451 0.39508379
-0.08472015 0.24217707 -0.29700395 0.1387774 0.28933144 -0.14757322 0.07577377 0.34135768
0.035563998 0.37330395 -0.17191643 0.07260898 -0.010132187 -0.33455226 -0.095537625 0.20837699
0.35395718 -0.18132047 -0.017459901 -0.0051333946 0.023775924 -0.2848862 0.370915 -0.29221487
-0.23749664 0.34123525 -0.12814823 -0.23695402 -0.029750668 0.09239473 -0.06043767 0.17076115
0.43532553 -0.024244692 0.048585672 0.004442461 -0.05910489 0.012678528 0.56516564 -0.30491322
-0.0479934 -0.008063117 0.20727636 0.023573965 -0.12284949 -0.11244243 -0.3655769 0.022795262
0.39050305 0.02289592 -0.28110653 0.20789371 0.6200878 0.09485178 0.002441024 -0.30251905
0.037348192 -0.4501406 -0.464964 0.5180318 0.08841456 -0.012520186 -0.054642882 0.31514075
-0.6529895 -0.08576648 0.31256506 0.32017297 0.14558615 0.035822704 -0.020040717 -0.21290153
0.3514169 0.0037131316 -0.11509097 0.082949385 -0.12269059 -0.10866648 -0.07800445 -0.003371306
-0.4879201 -0.13110264 -0.42170388 0.007925235 0.0077592954 -0.17433967 0.22158606 -0.32844967
-0.0047362046 -0.3955705 0.36136517 0.019446203 0.47563022 0.39791664 0.36669204 0.15749548
0.010665875 0.16776232 -0.36416215 -0.027168578 -0.04296898 -0.21492752 -0.0025164667 -0.13420258
-0.121651284 -0.04519785 -0.121036135 0.17992802 -0.17364453 0.110516295 -0.028922897 0.032389324
-0.114026986 0.104762286 -0.31327856 -0.15342431 0.0016795455 0.50284845 0.05854857 -0.17318104
0.030351542 -0.8225546 -0.40740877 -0.051389422 0.0043993876 0.09416436 -0.21328162 0.010483832
0.1675023 0.16406831 -0.32219714 -0.15850228 -0.18746568 0.050981984 -0.1376448 0.08705454
0.018174574 0.21460375 -0.14410639 -0.43500853 0.23678268 -0.16988523 0.5198338 -0.08577889
-0.05130289 0.028918555 0.29651633 0.33268827 -0.07661614 0.023106314 -0.25744057 0.4033549

linear2.bias f4 [3]
00000000: a13f 643e 315d b63d 9388 c43b
0.22289898 0.089044936 0.005997726
