model/model.pth (torch, 8799 bytes, 4 tensors)

linear1.weight f4 [121, 11]
00000000: f97b de3d 3cfd 963e 6351 dabe 6715 673d
00000010: 0d8d b1be 5b95 febe d5f0 183e 81ad c43d
00000020: c51a 4a3e 9117 ad3e 32e2 30be b2c6 2a3e
00000030: 90e8 62be 697e 8bbe 8530 1b3e b15b e73d
00000040: 0e08 30be 3ca3 1bbe 3412 d4bd a829 22be
00000050: c4f7 8ebe 7c51 91be fee3 443e c60c 84bf
00000060: 2975 c03e 0efc 853d 83f3 2fbf b6b3 a93c
00000070: f7bd d1be 3614 41be 91ff 6e3e 5727 083f
00000080: 0824 01be 11db 6bbe 99ce 2e3f 280d a33a
00000090: 9a1c e73d ff89 f33c eb51 15be bed7 3ebf
000000a0: dfee 69bc 120f 9fbd 1d83 87be e18f 433e
000000b0: c207 da3e 55ab 823e c797 79bf c0d5 a6be
000000c0: 47db 133f 19e1 593e 0291 9fbe f4d4 c43e
000000d0: 111c eabe 01b5 00bd c702 c3be 60cf 3cbe
000000e0: c409 d53e 1540 dd3e 88fd b8bd 5a38 98be
000000f0: 448f d6be ef76 21be f99d 043e 566e 943e
00000100: f2de 22bf 629f 9dbe ff73 2abf 986d cc3d
00000110: e3a6 a83e 2929 1a3f 0de7 8bbe 9909 58bf
00000120: 39df 4a3e f605 de3e 8c3e 12bf 1f58 63bd
00000130: 073b 84bf bcf4 df3d 6bb2 8dbf 68c2 87be
00000140: 3429 8abc 70b8 cf3b 052d 0c3f 4293 033e
00000150: 8bbb 53bf b00b 13bf 225e 633e b02b 0c3e
00000160: f9c1 1e3f 3566 2d3d 2ed0 663d 5e64 183d
00000170: 3753 9dbe 60b0 32bd 5a6d 61bd 6046 ee3e
00000180: d63b 673f a2ae 193f f109 293f a19a a23d
00000190: dcd7 463f 391f 5cbe 6fb7 8dbe f440 1abd
000001a0: 090b c6bd 4185 32be 1196 2b3f 2066 ab3e
000001b0: 76f5 b23e 159a b23e bc47 5d3e 2a16 cc3e
000001c0: 2a10 6bbf 1d4a 5dbc 602d 803d 8486 453e
000001d0: d318 a1be a68a 70be ae6c 31bf a6fc 043f
000001e0: 4183 a03e 5b5c 0fbf db67 07bd d588 11bf
000001f0: e35c 063f 0b98 f1bd 3db8 d5be e696 f5ba
00000200: a8d1 00bf 757d 12be 776d 023f c2ea 82bd
00000210: 0527 fc3d a053 e2ba 2742 8ebe 0e66 013e
00000220: 18bc 803b 46b6 8abe a1ee 873c 6fd1 e2bd
00000230: e889 083d 3d49 88be 1f4b ebbd 6e10 803d
00000240: 5b3a 4bbf 297e db3e bf35 a9be d6a4 a7be
00000250: 28f2 aabe acdd f53e a9bc 17bc e8a9 d4be
00000260: cc7d ac3e fa82 4ebf 7077 8e3e bfda 0f3d
00000270: cd0d 1c3d c9e7 ecbe 891d 38bf a813 0c3f
00000280: 5fbd d83e 84cc af3e a3c2 133f 2f0f 30bf
00000290: 0454 05bf 5889 493f 7a19 29bf c053 733e
000002a0: dca2 773e 81bc 013f 835d cbbe 94a4 34be
000002b0: 6d65 253e 279a 8cbe c9bf 2e3f a16e 123f
000002c0: d362 0abf a34e ad3d 8448 a53d 2030 19bd
000002d0: 4270 17bf 7233 c1bd 5347 1b3f bf71 56bf
000002e0: 403e 11be fa8d 55bf 2b29 b73e 3b0e 9fbe
000002f0: 342b e33d e52c 3c3f a38a b23e 0ec1 963e
00000300: 7028 9e3c faa7 09bf 4808 adbd a4c5 ca3e
00000310: 1d86 8abe 6000 dcbe 1616 5dbe 61cc cdbc
00000320: d136 4dbc ad2d 1dbe 9cde fe3e 4c0b debe
00000330: 6c4d f6be 0b9a c83e 2a17 e0be 289c 313f
00000340: c3e0 363f 2341 afbd 7969 473d 5772 6bbd
00000350: 2614 5ebf cad3 273f a511 6cbf 70d4 103e
00000360: d1a4 93bf b60a e53e 3cc1 fabe dcdc 83bf
00000370: f157 453f 8ea4 00bd dcaa cbbe fe4b 05be
00000380: 44d1 5fbe 67ab a23e c1c5 8e3d 524f 7f3e
00000390: 75d9 b73e 2341 d2be b195 4dbe aba6 e23e
000003a0: 4db5 43bf ae74 1bbb 75f6 553e 1770 bdbe
000003b0: 16fe f23e 64ee 1e3d ca9b 99bd 6931 db3e
000003c0: ceeb c4be 445f 8a3d c817 04be 7ecd 5ebd
000003d0: 7541 b0be 11b8 613e 5ce2 583e 5d58 77be
000003e0: 0b15 4bbe 85c6 d9be 9ef4 d0be c2da 10bf
000003f0: 17f1 883c 90ad fd3d 016d 48bf f942 663f
0.1086349 0.29490077 -0.42640218 0.056416895 -0.34677926 -0.49723324 0.1493562 0.09603406
0.19736774 0.33807042 -0.17273787 0.16677359 -0.22159028 -0.2724488 0.15155227 0.112967856
-0.17190573 -0.15198988 -0.103550345 -0.15836203 -0.27923405 -0.2838248 0.19227597 -1.0316398
0.37589386 0.06542216 -0.68730944 0.020715576 -0.40965244 -0.18855366 0.23339678 0.5318503
-0.12611401 -0.23032786 0.68283993 0.0012439834 0.11284752 0.029728888 -0.1458203 -0.74547946
-0.014278143 -0.07766546 -0.2646722 0.19097854 0.42584044 0.2552134 -0.9749722 -0.32584953
0.57756466 0.21277274 -0.3116532 0.3844372 -0.45724538 -0.03142262 -0.38088056 -0.18438482
0.41609013 0.43212953 -0.09032732 -0.29730493 -0.41906178 -0.15768026 0.12950887 0.2899043
-0.6362144 -0.30785662 -0.66583246 0.09981841 0.32939824 0.60219055 -0.27324715 -0.84389645
0.19811715 0.43363923 -0.5712669 -0.05550396 -1.0330514 0.10935351 -1.1070074 -0.26515508
-0.01686535 0.0063391253 0.54756194 0.12849143 -0.8270804 -0.5743971 0.22203878 0.1368854
0.6201473 0.0423338 0.05635088 0.037205093 -0.3072755 -0.043625236 -0.055035926 0.46538067
0.9032568 0.60032094 0.66030794 0.079396494 0.77673125 -0.21496285 -0.2767901 -0.0376596
-0.096700735 -0.17433645 0.6702586 0.33476353 0.34952897 0.3488318 0.21609396 0.3986066
-0.9182154 -0.0135064395 0.062586546 0.19289595 -0.31464252 -0.2349039 -0.6930646 0.5194801
0.3135014 -0.560003 -0.03305803 -0.56849414 0.52485484 -0.11796578 -0.41742125 -0.0018736988
-0.5031991 -0.1430567 0.5094828 -0.06392433 0.1231213 -0.0017267354 -0.27784845 0.12636587
0.0039286725 -0.2709219 0.01659328 -0.110751025 0.033334643 -0.26618376 -0.114889376 0.06253134
-0.7938592 0.4286969 -0.33048818 -0.32742947 -0.33387876 0.48020685 -0.009261289 -0.41535878
0.33689725 -0.80668604 0.278255 0.035120722 0.0380991 -0.46270588 -0.7192007 0.54717493
0.4233198 0.3433572 0.5771887 -0.6877317 -0.5208132 0.78725195 -0.660545 0.23762417
0.2418322 0.5067826 -0.3971978 -0.17640907 0.16151972 -0.2746136 0.6826139 0.57200056
-0.54057044 0.084622644 0.08070472 -0.03739941 -0.59155667 -0.094336405 0.6065571 -0.8376731
-0.14183903 -0.83419764 0.35773596 -0.31065544 0.11092225 0.73506004 0.34871396 0.29444164
0.019306391 -0.53771937 -0.08448845 0.39603913 -0.27055445 -0.42969036 -0.21590456 -0.02512187
-0.012525276 -0.15349455 0.49779212 -0.43367994 -0.48105943 0.39180025 -0.43767673 0.693789
0.7143671 -0.08557346 0.04868457 -0.05748209 -0.86749494 0.6555754 -0.92214423 0.14143538
-1.1534673 0.44734734 -0.4897555 -1.0301776 0.7708731 -0.03140693 -0.39778793 -0.1301727
-0.21857172 0.31771395 0.06971312 0.24932602 0.35908094 -0.4106532 -0.20076634 0.44267783
-0.7644852 -0.002372067 0.20894797 -0.3699958 0.47459477 0.038801566 -0.075004175 0.42811134
-0.38461155 0.06756452 -0.12899697 -0.05439519 -0.3442494 0.22042872 0.21180099 -0.24154802
-0.19832246 -0.4253427 -0.40811628 -0.565838 0.016716523 0.1238662 -0.78291327 0.8994594

linear1.bias f4 [121]
00000000: b2e3 13bf 255b 94be be24 673d 22ca a0be
00000010: f583 3dbe 1343 223d 354d a83c 2f0c 303f
00000020: 796f 26bf 4bf0 a5be 2c90 f83d c683 6f3d
00000030: eb91 9fbe 9dde 1ebe c953 d33d 92ee ddbe
00000040: 8833 fc3d 19a4 23bd f53f 43be 3289 bf3e
00000050: bce4 51be 3e73 49be 8093 313e 1a2e 91bd
00000060: cd31 123e 70cb 9a3e 247b a3be e15b febd
00000070: 651c f9be 507c 113f 07b9 8bbe 400b 9cbe
00000080: 0341 6bbd 926d b0be 8676 083f f7c7 923e
00000090: 83d4 0e3f 2b10 14bd 1066 b4be 94d3 02be
000000a0: cc51 fc3c f0fc 74be 047e 18bd 23b9 763f
000000b0: d478 e6be 1aab 98be d040 853d 1362 9cbe
000000c0: 006a 9ebe d53a 62be 59cf e23e 5d0e 68be
000000d0: 5121 cebe 5b17 3dbd 3f7d c53c 525f f9be
000000e0: c293 853e 684d 833d 4793 0ebe 70ad 2fbe
000000f0: e04d 933d da8a e73c be0c 42be bb79 44be
00000100: a12e 7fbe b72b b6bc 6c87 a73d aa93 dbbe
00000110: 261e e03e 353b 973e 6efa e1bd b710 3c3f
00000120: 766e 78bc 1cc6 86be 58e4 a1be 8124 2fbe
00000130: d4ed cbbe 9928 c5be d6de a7be 3fea bfbe
00000140: a3db 723a 6574 c4be 906a 973f 94b8 62be
00000150: c05e 4dbb 3aae f3bd b3ef ab3d eb75 cabe
00000160: c29a 493d dc6e 08be 12e0 96be 7eff e0be
00000170: 9804 09bf 2877 babe 8768 6bbd aec4 23be
00000180: 67f1 183e e857 cc3c 2035 e4be 784c c13e
00000190: a73b 2c3e 55c2 043f f075 a2be ebec 143e
000001a0: b264 c7be 931d 08be 3c74 84be 884d b23e
000001b0: 9a6f ae3e 71ff f5bd 76a7 3ebe e6d0 5c3c
000001c0: 9a52 a93d aa17 00be 5a67 b9be 0098 d9be
000001d0: 0409 403f 3870 08bf 8399 a3be 1f28 91be
000001e0: 1304 b3be
-0.5776931 -0.28975788 0.056431524 -0.31404215 -0.18507369 0.03961475 0.020544628 0.6876859
-0.65013844 -0.3240989 0.121368736 0.05847528 -0.31166014 -0.15514608 0.10318715 -0.43346077
0.12314516 -0.039951418 -0.19067366 0.3740936 -0.20497411 -0.19672868 0.17341423 -0.07088871
0.1427681 0.30233335 -0.31929886 -0.12419868 -0.48654476 0.5683031 -0.27289602 -0.30477333
-0.057435047 -0.34458596 0.5330585 0.28668186 0.5579302 -0.03614823 -0.35234118 -0.12776023
0.030800723 -0.23924613 -0.037229553 0.96376246 -0.4501406 -0.2981804 0.06506503 -0.30543575
-0.30940247 -0.22092755 0.4429882 -0.22661729 -0.40259793 -0.04616485 0.024107574 -0.48705536
0.26089293 0.064112484 -0.1392337 -0.17156005 0.07192588 0.028264452 -0.18950173 -0.19187061
-0.24920131 -0.022237642 0.081801265 -0.42886096 0.43773 0.2953736 -0.11034094 0.73463005
-0.015163055 -0.2632302 -0.31619525 -0.17103769 -0.39829886 -0.38507536 -0.32787198 -0.37483403
0.0009264296 -0.38370052 1.1829395 -0.22140723 -0.0031336993 -0.118984655 0.083953284 -0.3954309
0.049219854 -0.1332354 -0.29467827 -0.43944925 -0.53522635 -0.36419034 -0.057472732 -0.15992996
0.14935838 0.02494426 -0.4457178 0.37753654 0.1681963 0.5185903 -0.31730604 0.14543502
-0.38944012 -0.13292532 -0.2586993 0.34824777 0.3406952 -0.12011612 -0.18618569 0.01347754
0.08267708 -0.12509027 -0.36211663 -0.4249878 0.75013757 -0.5329623 -0.31953058 -0.28350922
-0.34964046

linear2.weight f4 [3, 121]
00000000: a32c 9d3e 3512 82bc 99e2 073e 2244 c73d
00000010: 5b40 69be bf8b 733d fb68 f43e 0858 bf3e
00000020: b717 dbbe 72f7 33be fc84 023e 67f8 1bbe
00000030: da14 99bd e3d9 fbbe 2824 64bf ff2b eebe
00000040: bad4 243e d963 353e 6343 46bf 6a46 333f
00000050: 46d9 ee3c 50d3 93be ca56 123e 6f88 2d3d
00000060: d8ac e73e a075 1b3e 9ab8 1ebf a631 0fbe
00000070: f13a 7abe 0da3 c73e 3770 81bd 716f ab3c
00000080: d099 10be 328c 3e3c dac2 0d3f 1b26 0c3f
00000090: c8a7 033f 0bfa a83e 6f15 213d 02ef f4bd
000000a0: 2c5e 13bf 04fe 833e 44a6 9a3c 74c7 483f
000000b0: 49ce 4dbd 253e c1be 41f9 833e dce5 30bd
000000c0: 28ee 44bd d7f8 fabd e6b7 3b3e ee13 ffbe
000000d0: e3e7 dcbd 1497 3fbf 9c84 f2bb 7e05 3ebf
000000e0: 56d0 043f 2216 b63e 876d 76bf 1d6c 47be
000000f0: c688 c13d bbe8 3fbe 7d8c d3be a71e 5b3d
00000100: f561 49bd e35d ccbe 2880 bc3c a469 4bbe
00000110: 0065 1d3f 9f99 0b3f 0905 e0bd 85c8 0b3f
00000120: 7edd 3f3e 1fee 803c 3ead 13bf 62cd 2dbf
00000130: a6c6 dabd b43f 73bd aa95 c53c 711d a7be
00000140: d0cb 2e3f 2ff0 b43e bf77 083f 3ae6 b9be
00000150: a364 133d 96c5 15bf efd1 8b3e 3769 99bc
00000160: cc30 acbc 3f91 ccbd 9015 8ebb b2ac 9b3c
00000170: 3b33 27be a72b 383c d58d 22bf 9440 b8be
00000180: de3b f23e 1f07 153e 5122 82bd f34d a13d
00000190: b064 9f3e f8ff 533e 9277 91be bcc4 503e
000001a0: 3f24 9ebd e6a1 cebc 7815 9abe c25e a63e
000001b0: 8583 eb3e ffc0 acbe 5339 dcbd e067 913e
000001c0: 702b 1c3d e369 0a3e caf8 1abf b024 c03e
000001d0: 282a be3e ba29 9dbd 4a57 c93c 350d 49bf
000001e0: 7d9a 0bbe 6116 acbd 0b2a 88bc 21cc d73e
000001f0: 7192 40bd cf2c e8be 726f 0fbe 3b18 d03e
00000200: f003 cc3e 8656 abbe 4043 14bf 0c27 043e
00000210: 18a1 3a3e 238d 5ebc 3eea 403e 5990 cf3e
00000220: 8240 d33e a900 64bf c34d 3abe dd7a 013d
00000230: 497d 0bbf 3781 1a3e 9bfd d13d 9559 3d3e
00000240: f1c0 893e 4502 8fbd 331a 97bd 18b1 e8bc
00000250: ddd5 ab3e ac79 a1be cbc8 c53e a08e f5bc
00000260: 1316 213d 1610 2a3e 8794 9ebe 2395 a83e
00000270: 978f b23e 4d5e 3b3d 30dd 4e3e a96e 943e
00000280: 3737 2e3f ad8d f63e 7f30 243e 05fb efbc
00000290: 1671 c33e 011e 493d ebe0 79be 04eb debe
000002a0: e761 04bf 565a 17be 6e96 39be 483b 7a3e
000002b0: 645e a3bd 97c2 75be 8403 a53e 7641 41bf
000002c0: fb5f 37be c346 eebd 0fd2 1e3f c569 e03d
000002d0: 5a33 393e 93b8 a9be fd55 4cbf ed79 f8bd
000002e0: 4b0f d83c 54f9 b0bd d168 fb3d 2566 863e
000002f0: ec45 97be 1bb3 d13e 6ce0 a0bd 0a40 9f3e
00000300: fd19 a23e db61 793e 84ab 8d3d 6219 3f3e
00000310: 4f6c 6a3d e32d 82be 8147 edbe 1d7a 883e
00000320: d00a bdbc 84c1 cb3e dac2 0c3c 0a3d 933e
00000330: d4ab d0be db4d be3c b196 743e fffc 3bbe
00000340: 352b 44be 0934 6d3d 5c55 b2be 9c38 adbc
00000350: 68ae c53b d89c 28be 9ff7 6cbd e20d 0c3e
00000360: c25f 0e39 e123 d33e 6f8a 63be 387d 44be
00000370: 675a dc3c 48b6 243d 3fe1 853e 12d6 bbbe
00000380: c622 3e3e 82ac a2be 2fc5 7a3d 2b69 0bbf
00000390: 8e49 e33d 722a abbd 457d 043f 1151 85be
000003a0: 7ce1 bc3e a5a3 8d3e 1d36 563e 2401 7dbd
000003b0: e6d3 33bd 6008 c03d 24a8 7fbe ebdb 9ebd
000003c0: e2a5 bcbe fc71 aebd 1f22 bd3e 551c 4abd
000003d0: 9eee 03bf c27a 323e 8264 c33e 21ba a0be
000003e0: f823 5bbf 7ec2 d73e d152 b7be ada2 1bbe
000003f0: f67a 033f 16c1 2c3e bb6a 38bd d84d 80be
0.30698118 -0.015877822 0.13270034 0.09729792 -0.22778456 0.059459444 0.47736344 0.3737185
-0.4279153 -0.17574862 0.12746042 -0.15231477 -0.0747468 -0.49189672 -0.8911767 -0.4651794
0.16096774 0.1771387 -0.77446574 0.7002932 0.029156338 -0.28872156 0.1429092 0.04236644
0.45249057 0.15181589 -0.6200043 -0.13983783 -0.24436547 0.38991585 -0.063202314 0.020927163
-0.14121175 0.011630105 0.55375445 0.54745644 0.5142789 0.33003268 0.03932708 -0.119596496
-0.5756557 0.25779736 0.01887811 0.7842934 -0.050245557 -0.37742725 0.25776103 -0.04318796
-0.048078686 -0.12254494 0.1833187 -0.49819893 -0.107864164 -0.748399 -0.007401062 -0.7422713
0.51880395 0.3556376 -0.96260875 -0.19474836 0.094499156 -0.18741123 -0.41318122 0.05349603
-0.049165685 -0.3991538 0.023010328 -0.19864517 0.6148224 0.5453128 -0.109384604 0.54602844
0.18736836 0.015738545 -0.5768622 -0.67891514 -0.106824204 -0.059386924 0.024119217 -0.3263965
0.68279743 0.35339496 0.5330772 -0.3630846 0.035984647 -0.5850462 0.27308604 -0.018726928
-0.021019362 -0.09988641 -0.0043360665 0.019003246 -0.16328137 0.011240876 -0.6349767 -0.3598677
0.473113 0.14553498 -0.063542016 0.07876196 0.31131506 0.20703113 -0.28411537 0.20387548
-0.07721757 -0.025223684 -0.30094504 0.3249417 0.4599878 -0.33740994 -0.10753121 0.28399563
0.038127363 0.13516955 -0.6053587 0.3752799 0.37141538 -0.07673974 0.024577755 -0.7853578
-0.13633151 -0.08402706 -0.01662161 0.42147925 -0.047014657 -0.45346686 -0.14007357 0.40643486
0.39846754 -0.3346445 -0.57915115 0.1290552 0.18225515 -0.013583454 0.18839356 0.40539816
0.41260153 -0.8906351 -0.18193726 0.031611312 -0.54488045 0.15088354 0.102534495 0.18491204
0.26905015 -0.06982855 -0.07378044 -0.028404757 0.33561602 -0.3153814 0.38629755 -0.029975235
0.039327692 0.16607699 -0.30972692 0.32926282 0.34875175 0.04574423 0.20201564 0.28990677
0.68053 0.48154965 0.16034125 -0.0292945 0.38172215 0.04910088 -0.24402206 -0.43538678
-0.5171189 -0.14780554 -0.1812379 0.24436677 -0.07976988 -0.24000011 0.32229245 -0.7549051
-0.17907707 -0.116345905 0.62039274 0.10957674 0.18085995 -0.3314863 -0.7981871 -0.121326305
0.02637448 -0.086413056 0.122758515 0.26249805 -0.29545534 0.4095696 -0.07855305 0.31103545
0.31660452 0.24353735 0.0691748 0.18662027 0.057232197 -0.25425634 -0.46343616 0.26655665
-0.023076445 0.39796078 0.008591378 0.28757507 -0.40756094 0.023230484 0.23885609 -0.18358229
-0.19157107 0.057910953 -0.3483075 -0.021145158 0.0060327537 -0.16466081 -0.057853337 0.13677171
0.00013577848 0.4123831 -0.22220777 -0.19188392 0.026898576 0.0402129 0.26148412 -0.3668676
0.18567953 -0.31772238 0.061223205 -0.5445735 0.11098014 -0.08357705 0.51753646 -0.2603841
0.3689078 0.27663913 0.2091908 -0.061768666 -0.043903254 0.093765974 -0.24966484 -0.0775679
-0.3684531 -0.085178345 0.36940095 -0.049343426 -0.51535976 0.17429641 0.3816262 -0.31392005
-0.8560176 0.42140573 -0.3580537 -0.15198775 0.513595 0.16870531 -0.04502366 -0.2505939

linear2.bias f4 [3]
00000000: 688d 043f d9f6 143e 53e0 0d3c
0.5177827 0.1454729 0.00865944
