Snake_game/model/model.pth (torch, 8799 bytes, 4 tensors)

linear1.weight f4 [121, 11]
0.14824688 -0.2712063 0.032285146 0.19138165 -0.21228822 0.07805397 0.19927861 0.024013298
0.033966266 -0.23206018 -0.06948135 0.16188483 0.20616707 -0.17658116 -0.26089492 0.21686243
-0.038594134 0.15663351 -0.17070457 -0.040877175 0.29986027 -0.024248462 -0.24042867 0.15949783
0.26106432 0.2019524 -0.28501087 -0.3210825 -0.1383153 0.119805 0.239918 0.22140692
-0.1714765 0.3104261 -0.29092667 -0.23391134 0.24628289 0.123458534 -0.29735762 0.28008708
0.17026354 0.25068817 -0.060283583 -0.21689157 -0.04693763 -0.21962169 -0.26058766 0.0069487076
0.101474464 0.08764609 -0.2611424 0.1698274 -0.054977026 0.06477444 0.23467205 -0.21860777
0.22574562 -0.033050753 0.15269339 -0.16596968 0.010748733 0.18639272 0.041558474 0.27519485
-0.11726467 -0.09342799 -0.15117458 -0.13629912 0.0064528054 0.15190397 0.25684464 0.21322244
0.02246147 0.25937632 0.06840406 -0.20515917 0.14043687 -0.21977402 -0.23745786 0.22704582
-0.0056644976 0.1759516 -0.26371422 -0.07014058 0.15926026 0.14441362 -0.1432763 0.16378269
-0.09933488 -0.19280125 0.20217203 -0.2895612 -0.28918043 -0.06667765 -0.20384087 0.20725353
0.2629361 -0.081349604 0.27314022 -0.14045526 -0.16042626 0.11138926 -0.3060919 0.09126341
-0.19482177 -0.22119087 0.12625276 0.2648214 0.19938144 0.3259781 -0.25801063 0.0025525324
-0.14954536 -0.23172449 0.22082078 0.22889255 -0.2878867 -0.26562342 0.21409602 -0.1265957
0.062526636 -0.15519977 0.017082212 0.006445398 -0.20961395 0.07285076 0.19207565 0.2708837
-0.14482032 -0.23422211 -0.096456714 0.06187856 0.14982633 -0.12064454 0.21087727 -0.15857854
0.045514323 0.34334552 -0.14180022 0.3425581 -0.12856108 -0.12644263 -0.061829805 0.120144516
0.024647808 0.28175044 -0.09130926 -0.13234206 0.115710996 -0.19373249 -0.1258662 -0.18536578
0.27946132 0.047611468 -0.16671388 -0.26324058 0.027838077 0.23487973 0.24491693 0.1319871
0.012888029 -0.1683245 -0.16552329 0.17083706 0.25228837 -0.10957596 -0.14505334 -0.20964694
-0.070358716 0.057809863 -0.15148461 -0.13226494 0.25139937 0.01468713 0.066039406 -0.2821262
0.21315464 -0.21079846 -0.03234809 0.2941458 0.21709326 0.115070045 -0.05043272 -0.12581418
0.2108816 0.20846635 -0.3014247 0.0077081695 0.033490952 -0.07988201 0.25421593 0.03314074
-0.18845811 0.15530185 -0.13421947 0.14324704 0.2771738 0.09277075 0.13503096 -0.020689381
-0.26418316 0.18210022 0.19332168 0.3339217 0.22297922 -0.049779244 0.05563468 0.13915715
-0.05204468 -0.20413195 -0.030167324 0.23831081 0.2205357 -0.27975473 0.17385064 -0.21150821
-0.18474929 0.244748 -0.041753296 0.088018015 0.21777958 0.015114929 -0.09154722 -0.00022886865
-0.15573548 0.32235035 -0.011170314 -0.2274875 0.062104635 0.13871056 0.0019090293 0.2877884
-0.003919112 0.26160324 -0.041893564 -0.26029697 0.021745143 0.12672897 0.021936413 -0.09878538
-0.03946658 0.09933292 -0.27874616 0.110865444 0.21297313 -0.22434402 0.24412198 0.093673095
-0.05671647 0.24620962 0.05730118 -0.19481856 -0.18339334 -0.026454303 0.09810161 0.015789155
00000000: 08ce 173e 8ddb 8abe 6e3d 043d 8df9 433e
00000010: 1562 59be c3da 9f3d b10f 4c3e 89b7 c43c
00000020: 3620 0b3d 2fa1 6dbe 3d4c 8ebd 23c5 253e
00000030: 761d 533e b1d1 34be 0594 85be 2f11 5e3e
00000040: e214 1ebd 8964 203e 2ecd 2ebe d36e 27bd
00000050: 4987 993e b6a4 c6bc ef32 76be 6653 233e
00000060: 39aa 853e 9ccc 4e3e f2ec 91be ed64 a4be
00000070: 87a2 0dbe 535c f53d 10ad 753e 7fb8 623e
00000080: 8997 2fbe 2bf0 9e3e 57f4 94be 7486 6fbe
00000090: 9531 7c3e d4d7 fc3d 423f 98be 9367 8f3e
000000a0: 9159 2e3e 335a 803e ebeb 76bd d318 5ebe
000000b0: ac41 40bd 82e4 60be bf6b 85be fcb1 e33b
000000c0: d8d1 cf3d cb7f b33d 75b4 85be 3ce7 2d3e
000000d0: 972f 61bd 76a8 843d df4d 703e b7da 5fbe
000000e0: dc29 673e 3a60 07bd a85b 1c3e f5f3 29be
000000f0: 741b 303c bcdd 3e3e 3839 2a3d 57e6 8c3e
00000100: 7628 f0bd 2d57 bfbd 82cd 1abe ff91 0bbe
00000110: 0e72 d33b b78c 1b3e 2481 833e fc56 5a3e
00000120: 1e01 b83c f9cc 843e 6e17 8c3d 3f15 52be
00000130: afce 0f3e 710c 61be 2728 73be b37e 683e
00000140: 409d b9bb a82c 343e 8d05 87be dda5 8fbd
00000150: 1f15 233e 2ae1 133e 06b7 12be a6b6 273e
00000160: 1670 cbbd b16d 45be 2f06 4f3e 5e41 94be
00000170: 750f 94be 4b8e 88bd a9bb 50be 453a 543e
00000180: 8f9f 863e 9f9a a6bd 09d9 8b3e 81d3 0fbe
00000190: c846 24be 0d20 e43d 14b8 9cbe 50e8 ba3d
000001a0: 5c7f 47be dc7f 62be 6748 013e ac96 873e
000001b0: a62a 4c3e 9ae6 a63e f819 84be 6348 273b
000001c0: 6b22 19be 2f49 6dbe d81e 623e cf62 6a3e
000001d0: e365 93be cbff 87be fd3b 5b3e 4ea2 01be
000001e0: f70d 803d b0ec 1ebe ffef 8b3c eb33 d33b
000001f0: 0aa5 56be c732 953d 7baf 443e 45b1 8a3e
00000200: c74b 14be ecd7 6fbe 198b c5bd 5f74 7d3d
00000210: 136c 193e 7c14 f7bd 36f0 573e 6a62 22be
00000220: 3a6d 3a3d fcca af3e 1434 11be c663 af3e
00000230: 84a5 03be 2d7a 01be 4041 7dbd 540e f63d
00000240: 33ea c93c 9841 903e 5900 bbbd ad84 07be
00000250: e3f9 ec3d cf61 46be 12e3 00be 87d0 3dbe
00000260: 8e15 8f3e 3e04 433d 0bb7 2abe 78c7 86be
00000270: ae0c e43c 5084 703e 81cb 7a3e a027 073e
00000280: 5028 533c 425d 2cbe f07e 29be e9ef 2e3e
00000290: f12b 813e 5c69 e0bd dd88 14be b0ad 56be
000002a0: 3b18 90bd 09ca 6c3d c81e 1bbe 7670 07be
000002b0: 6bb7 803e 4aa2 703c ab3f 873d d872 90be
000002c0: 3645 5a3e 8ddb 57be 6e7f 04bd 479a 963e
000002d0: b24d 5e3e d8a9 eb3d 8a92 4ebd 6fd5 00be
000002e0: 59f1 573e 3478 553e 5754 9abe d094 fc3b
000002f0: cf2d 093d 2e99 a3bd 9728 823e 96be 073d
00000300: 2afb 40be 7307 1f3e d470 09be 5aaf 123e
00000310: b9e9 8d3e 97fe bd3d 8e45 0a3e c77c a9bc
00000320: 0443 87be 7b78 3a3e 1ef6 453e c9f7 aa3e
00000330: aa54 643e 52e5 4bbd 31e1 633d 367f 0e3e
00000340: cd2c 55bd f707 51be 7721 f7bc c007 743e
00000350: 1cd4 613e 033c 8fbe e705 323e 9c95 58be
00000360: eb2e 3dbe 389f 7a3e 8105 2bbd ca42 b43d
00000370: 9c01 5f3e 9ba4 773c 1c7d bbbd 76fc 6fb9
00000380: 1f79 1fbe 1b0b a53e b103 37bc 7cf2 68be
00000390: 6e61 7e3d 240a 0e3e 6538 fa3a 0059 933e
000003a0: e56b 80bb dcf0 853e 9698 2bbd a545 85be
000003b0: df22 b23c 3dc5 013e feb3 b33c fd4f cabd
000003c0: b5a7 21bd 0f6f cb3d d1b7 8ebe 6c0d e33d
000003d0: a115 5a3e 70ba 65be 1dfb 793e aed7 bf3d
000003e0: 874f 68bd 601e 7c3e a4b4 6a3d 847e 47be
000003f0: 77cb 3bbe b2b6 d8bc 7fe9 c83d 4258 813c

linear1.bias f4 [121]
-0.17150281 0.29364783 0.29767552 -0.04185672 0.16476801 0.3050209 -0.03952893 -0.026325395
0.07027573 0.13742363 -0.02894507 -0.14112505 -0.20643815 -0.1889441 -0.21217933 0.26488042
0.23383032 -0.1757675 -0.13141795 0.13280863 0.23058598 -0.1611606 -0.038576208 0.14463073
-0.015268389 -0.26419324 0.25552043 -0.12685938 -0.19817287 0.2148417 -0.15138787 0.14830226
-0.12629716 -0.18091834 0.2850617 0.02024116 -0.116031766 -0.27405202 0.2793467 -0.09716246
-0.1422251 0.23969643 -0.112010546 0.1600915 0.10441226 0.10823921 0.035518456 0.12509078
-0.27171257 0.016275415 -0.17316797 0.26061186 -0.017424185 0.06099526 -0.17358345 0.06408658
0.045356814 -0.123096146 0.250015 -0.24203128 0.19767192 0.08810738 -0.059070487 0.00846055
-0.12465658 0.119555466 -0.18212378 -0.13023986 0.24660008 -0.02655124 0.20874827 -0.26081854
-0.11012858 -0.02750906 0.1342353 0.0754322 -0.20913112 0.17711617 -0.08499173 -0.09101296
-0.0017815845 0.08198658 0.32457304 0.2841341 -0.16202466 -0.115501605 -0.19265993 -0.070028216
0.065004304 -0.32178918 0.19421493 -0.09119002 0.09018792 0.26548555 0.315827 -0.17653866
0.11865222 -0.09863536 -0.059922576 -0.1640529 -0.16489026 -0.09032256 -0.18909381 0.1901862
0.23472326 -0.21782556 -0.258302 -0.23950194 -0.09655932 0.11174336 -0.08113143 -0.15525874
0.246137 0.08341146 -0.22681318 0.16588797 0.13863364 0.21484387 0.15766023 -0.030928368
0.27577692
00000000: 6f9e 2fbe 0259 963e ed68 983e f471 2bbd
00000010: f2b8 283e b32b 9c3e 16e9 21bd 5ba8 d7bc
00000020: b9ec 8f3d c8b8 0c3e 361e edbc 1683 10be
00000030: 8664 53be 907a 41be 8a45 59be 689e 873e
00000040: 3771 6f3e 65fc 33be 6d92 06be fcfe 073e
00000050: bb1e 6c3e 4907 25be 1602 1ebd 141a 143e
00000060: 4428 7abc 5644 87be 93d3 823e 6de7 01be
00000070: d4ed 4abe 76ff 5b3e 6c05 1bbe 8cdc 173e
00000080: 0b54 01be a842 39be 9bf3 913e cad0 a53c
00000090: 10a2 edbd 8c50 8cbe 8806 8f3e 1dfd c6bd
000000a0: 75a3 11be fb72 753e c965 e5bd 07ef 233e
000000b0: 18d6 d53d 85ac dd3d cd7b 113d cc17 003e
000000c0: e91d 8bbe 0554 853c f252 31be eb6e 853e
000000d0: 2abd 8ebc 2ad6 793d dcbf 31be d33f 833d
000000e0: 11c8 393d d519 fcbd f701 803e 0cd7 77be
000000f0: 826a 4a3e a471 b43d e5f3 71bd 1e9e 0a3c
00000100: f34b ffbd 7fd9 f43d a87e 3abe 995d 05be
00000110: bb84 7c3e fc81 d9bc 1bc2 553e 028a 85be
00000120: 188b e1bd ae5a e1bc fa74 093e 337c 9a3d
00000130: 7826 56be f15d 353e 2510 aebd 0165 babd
00000140: 0e84 e9ba 94e8 a73d 702e a63e 067a 913e
00000150: cbe9 25be 1b8c ecbd a548 45be f46a 8fbd
00000160: fa20 853d 8dc1 a4be 47e0 463e d5c1 babd
00000170: 72b4 b83d b9ed 873e 14b4 a13e 8dc6 34be
00000180: efff f23d 5601 cabd 6071 75bd 7cfd 27be
00000190: fed8 28be 09fb b8bd cfa1 41be 2cc0 423e
000001a0: 4b5b 703e aa0d 5fbe 2940 84be ff3f 75be
000001b0: e5c0 c5bd b4d9 e43d 3c28 a6bd 26fc 1ebe
000001c0: 560b 7c3e a1d3 aa3d b741 68be 89de 293e
000001d0: faf5 0d3e 0800 5c3e af71 213e 7d5d fdbc
000001e0: a232 8d3e

linear2.weight f4 [3, 121]
0.010602667 -0.052353237 -0.027320145 -0.08615322 -0.10405649 -0.029354166 -0.031257723 0.08694601
-0.03570108 -0.07285126 -0.06675872 0.017350974 0.105043575 -0.036774877 0.036314383 0.0092389
0.035153374 -0.06616967 -0.12843156 -0.02384185 -0.05193763 -0.029701613 0.009239252 0.031632762
0.079355575 0.023582932 -0.102290235 0.040750787 0.036521252 -0.041027583 0.011796748 0.05980692
-0.056708723 -0.080021545 -0.049020596 0.01986102 -0.03394034 0.015045867 -0.0061836913 0.025821412
-0.030103536 0.023023289 -0.0288535 -0.11107497 -0.04713557 0.05625929 -0.076098934 -0.011969822
-0.016495006 -0.055515192 0.026490273 0.02374719 0.055806298 0.028564628 -0.025807977 -0.034503583
-0.025839949 0.03786067 0.064588346 0.022463785 0.0011411689 -0.006900295 0.018075367 -0.06014511
-0.081804335 0.036038402 -0.02892352 -0.033339158 -0.04894583 -0.0353517 -0.09036714 0.07247969
0.08276633 -0.037847918 -0.057001162 0.025760317 0.045536738 -0.04157908 0.09989028 -0.02670211
-0.009790039 -0.03299654 -0.10586567 -0.104342595 0.07693809 -0.07739903 -0.01004474 -0.0010776791
-0.034926306 -0.071525745 -0.10376851 0.06719157 -0.059187956 -0.06272186 -0.030737573 -0.0034773608
0.1031122 -0.014473501 -0.06644523 0.03618916 0.04317453 0.008386589 -0.0065372437 0.017279804
-0.076624945 -0.039742485 -0.1072294 0.044691652 0.032529738 0.03902776 0.054326467 0.03405553
0.021388568 -0.02659506 -0.09489295 -0.022266855 0.02324864 -0.05377494 -0.028195905 0.03330729
-0.053161085 0.052327897 -0.09891159 -0.08354479 -0.05713597 0.011271174 -0.014730097 -0.07690974
-0.06328562 -0.1332507 -0.032406434 0.0642625 0.015459531 -0.04211199 -0.061309997 -0.08780988
0.044660024 -0.016562132 -0.06755906 -0.080226175 -0.050276708 -0.020434761 0.050716206 -0.025026202
0.03202757 0.0046281675 0.03194041 -0.04779767 -0.0037196549 -0.007759087 -0.09794237 -0.085802965
0.042122155 -0.0031021077 0.043281313 -0.10319849 -0.022701079 -0.047235537 0.030717695 0.022628343
-0.067284 0.033676762 -0.100064605 0.015970334 0.03355582 -0.07295289 0.0348822 -0.007358525
-0.0913484 -0.028976249 0.017141033 0.040448647 0.042807948 -0.03282839 -0.023180107 -0.02091135
0.024122408 -0.06917626 0.08875034 0.02115536 -0.024598803 -0.09340857 -0.07663039 -0.028184263
-0.061369807 -0.05602966 -0.09337357 0.012082236 0.05772028 -0.051892467 0.028138507 -0.09611204
0.08761181 -0.006580605 0.07457569 -0.05452293 -0.0064457324 0.04820622 -0.079686575 0.020538626
-0.053798486 -0.10785552 -0.0701526 -0.04815715 -0.039415553 -0.044904407 0.009824599 -0.092411734
0.040410407 -0.015001498 -0.017446963 -0.06439061 -0.050784416 0.025306882 0.0046931873 -0.057199158
-0.048802912 0.035743233 0.01753134 -0.087201916 0.016793996 0.018330436 -0.013087833 -0.015283748
0.016378427 0.029060312 -0.08460001 -0.049144506 -0.076131284 0.0027996236 -0.041554663 -0.013304782
-0.03597475 -0.09269551 0.036102757 0.011049551 0.015090691 0.06070072 0.0024690796 -0.0031288133
-0.039852336 -0.012250071 -0.03113595 -0.08244369 0.0560349 -0.031211495 0.027992256 -0.001781794
-0.055518422 0.009049622 -0.09770998 -0.014294859 0.0028929622 0.043162454 -0.02607 -0.017081374
00000000: cfb6 2d3c 5970 56bd 7fce dfbc 1971 b0bd
00000010: 921b d5bd 2678 f0bc 1908 00bd c010 b23d
00000020: 4c3b 12bd 0b33 95bd ccb8 88bd a123 8e3c
00000030: 1621 d73d 41a1 16bd 64be 143d c15e 173c
00000040: fcfc 0f3d f783 87bd 9083 03be fc4f c3bc
00000050: 8dbc 54bd cc50 f3bc 3b60 173c 5b91 013d
00000060: 2d85 a23d fe30 c13c 8b7d d1bd 4cea 263d
00000070: 4f97 153d 8a0c 28bd 2647 413c 1af8 743d
00000080: 6847 68bd 56e2 a3bd d2c9 48bd 94b3 a23c
00000090: 0705 0bbd f182 763c 90a0 cabb 6d87 d33c
000000a0: b19b f6bc 569b bc3c 2d5e ecbc 467b e3bd
000000b0: 3a11 41bd 2470 663d c2d9 9bbd 131d 44bc
000000c0: 8920 87bc e663 63bd 2102 d93c 7889 c23c
000000d0: 2595 643d 5e00 ea3c 406b d3bc a153 0dbd
000000e0: 4dae d3bc ca13 1b3d e546 843d f905 b83c
000000f0: 4693 953a df1b e2bb cb12 943c b85a 76bd
00000100: 0889 a7bd 019d 133d 05f1 ecbc a48e 08bd
00000110: 6c7b 48bd f2cc 10bd 6812 b9bd 3b70 943d
00000120: 6581 a93d 6b06 1bbd 0d7a 69bd 4d07 d33c
00000130: bb84 3a3d d34e 2abd 4693 cc3d 62be dabc
00000140: 6666 20bc 6127 07bd 1ad0 d8bd 92b1 d5bd
00000150: b891 9d3d 6283 9ebd b192 24bc e940 8dba
00000160: e30e 0fbd 177c 92bd 9684 d4bd bc9b 893d
00000170: 126f 72bd 5274 80bd 5dcd fbbc 6fe4 63bb
00000180: 7d2c d33d 4322 6dbc 7014 88bd 163b 143d
00000190: c7d7 303d e767 093c 6036 d6bb 608e 8d3c
000001a0: 8aed 9cbd 04c9 22bd 169b dbbd 980e 373d
000001b0: e73d 053d 93db 1f3d 6e85 5e3d d07d 0b3d
000001c0: 1437 af3c e2dd d9bc 3c57 c2bd fb68 b6bc
000001d0: ef73 be3c 1d43 5cbd 19fb e6bc 3a6d 083d
000001e0: 70bf 59bd c755 563d 2992 cabd 8819 abbd
000001f0: 6807 6abd bbaa 383c 8156 71bc db82 9dbd
00000200: e49b 81bd df72 08be 9cbc 04bd 0f9c 833d
00000210: f949 7d3c 9f7d 2cbd 3120 7bbd abd5 b3bd
00000220: 6eed 363d 4fad 87bc 685c 8abd 9f4d a4bd
00000230: f3ee 4dbd cd66 a7bc ccbb 4f3d c003 cdbc
00000240: 572f 033d e2a7 973b f3d3 023d 7dc7 43bd
00000250: 74c5 73bb f03f febb 0296 c8bd 77b9 afbd
00000260: 4888 2c3d bb4c 4bbb bf47 313d bb59 d3bd
00000270: 9df7 b9bc 0d7a 41bd ada3 fb3c 135f b93c
00000280: 32cc 89bd a5f0 093d acee ccbd 38d4 823c
00000290: d471 093d 5368 95bd a3e0 0e3d c81f f1bb
000002a0: df14 bbbd 995f edbc 5a6b 8c3c 7bad 253d
000002b0: 6357 2f3d 1077 06bd 35e4 bdbc 484e abbc
000002c0: 5b9c c53c 48ac 8dbd bdc2 b53d 014e ad3c
000002d0: 6e83 c9bc fe4c bfbd 65f0 9cbd afe2 e6bc
000002e0: e85e 7bbd 5b7f 65bd a43a bfbd 92f4 453c
000002f0: 1a6c 6c3d 328d 54bd ba82 e63c 64d6 c4bd
00000300: d26d b33d 1ea2 d7bb 24bb 983d 7053 5fbd
00000310: b936 d3bb e373 453d b732 a3bd 9f40 a83c
00000320: cd5b 5cbd 5be3 dcbd 2bac 8fbd 6f40 45bd
00000330: 3472 21bd afed 37bd 5bf7 203c 5d42 bdbd
00000340: 6285 253d d8c8 75bc efec 8ebc 39df 83bd
00000350: 5203 50bd 6150 cf3c 4fc9 993b aa49 6abd
00000360: 90e5 47bd 7f67 123d e29d 8f3c eb96 b2bd
00000370: 9093 893c b629 963c 5a6e 56bc af68 7abc
00000380: 0d2c 863c e40f ee3c c542 adbd c04b 49bd
00000390: b8ea 9bbd e479 373b 3935 2abd 4dfc 59bc
000003a0: 425a 13bd 25d7 bdbd 7ce0 133d 2d09 353c
000003b0: f23e 773c 51a1 783d 48d0 213b c70c 4dbb
000003c0: 343c 23bd 86b4 48bc d210 ffbc 3dd8 a8bd
000003d0: da84 653d 40af ffbc 0450 e53c 168b e9ba
000003e0: 4967 63bd de44 143c 2c1c c8bd fc34 6abc
000003f0: da97 3d3b 1dcb 303d c190 d5bc 3dee 8bbc

linear2.bias f4 [3]
-0.06595835 0.011556609 -0.10284389
00000000: 2c15 87bd ee57 3d3c d19f d2bd
